…
=> init 7.bias as 0
=> init final conv weights from normal distribution
=> init 8.weight as normal(0, 0.001)
=> init 8.bias as 0
=> loading pretrained model models/pytorch/imagenet/resnet50-19c8e357.pth
=> creating output/mpii/Deconv_pose_resnet_50/Deconv_256x256_d256x3_adam_lr1e-3
=> creating log/mpii/Deconv_pose_resnet_50/Deconv_256x256_d256x3_adam_lr1e-3_2019-06-05-09-17
Deconv start
----------------------------------------------------------------
        Layer (type)               Output Shape         Param #
================================================================
            Conv2d-1         [-1, 64, 128, 128]           9,408
       BatchNorm2d-2         [-1, 64, 128, 128]             128
              ReLU-3         [-1, 64, 128, 128]               0
         MaxPool2d-4           [-1, 64, 64, 64]               0
            Conv2d-5           [-1, 64, 64, 64]           4,096
       BatchNorm2d-6           [-1, 64, 64, 64]             128
              ReLU-7           [-1, 64, 64, 64]               0
            Conv2d-8           [-1, 64, 64, 64]          36,864
       BatchNorm2d-9           [-1, 64, 64, 64]             128
             ReLU-10           [-1, 64, 64, 64]               0
           Conv2d-11          [-1, 256, 64, 64]          16,384
      BatchNorm2d-12          [-1, 256, 64, 64]             512
           Conv2d-13          [-1, 256, 64, 64]          16,384
      BatchNorm2d-14          [-1, 256, 64, 64]             512
             ReLU-15          [-1, 256, 64, 64]               0
       Bottleneck-16          [-1, 256, 64, 64]               0
           Conv2d-17           [-1, 64, 64, 64]          16,384
      BatchNorm2d-18           [-1, 64, 64, 64]             128
             ReLU-19           [-1, 64, 64, 64]               0
           Conv2d-20           [-1, 64, 64, 64]          36,864
      BatchNorm2d-21           [-1, 64, 64, 64]             128
             ReLU-22           [-1, 64, 64, 64]               0
           Conv2d-23          [-1, 256, 64, 64]          16,384
      BatchNorm2d-24          [-1, 256, 64, 64]             512
             ReLU-25          [-1, 256, 64, 64]               0
       Bottleneck-26          [-1, 256, 64, 64]               0
           Conv2d-27           [-1, 64, 64, 64]          16,384
      BatchNorm2d-28           [-1, 64, 64, 64]             128
             ReLU-29           [-1, 64, 64, 64]               0
           Conv2d-30           [-1, 64, 64, 64]          36,864
      BatchNorm2d-31           [-1, 64, 64, 64]             128
             ReLU-32           [-1, 64, 64, 64]               0
           Conv2d-33          [-1, 256, 64, 64]          16,384
      BatchNorm2d-34          [-1, 256, 64, 64]             512
             ReLU-35          [-1, 256, 64, 64]               0
       Bottleneck-36          [-1, 256, 64, 64]               0
           Conv2d-37          [-1, 128, 64, 64]          32,768
      BatchNorm2d-38          [-1, 128, 64, 64]             256
             ReLU-39          [-1, 128, 64, 64]               0
           Conv2d-40          [-1, 128, 32, 32]         147,456
      BatchNorm2d-41          [-1, 128, 32, 32]             256
             ReLU-42          [-1, 128, 32, 32]               0
           Conv2d-43          [-1, 512, 32, 32]          65,536
      BatchNorm2d-44          [-1, 512, 32, 32]           1,024
           Conv2d-45          [-1, 512, 32, 32]         131,072
      BatchNorm2d-46          [-1, 512, 32, 32]           1,024
             ReLU-47          [-1, 512, 32, 32]               0
       Bottleneck-48          [-1, 512, 32, 32]               0
           Conv2d-49          [-1, 128, 32, 32]          65,536
      BatchNorm2d-50          [-1, 128, 32, 32]             256
             ReLU-51          [-1, 128, 32, 32]               0
           Conv2d-52          [-1, 128, 32, 32]         147,456
      BatchNorm2d-53          [-1, 128, 32, 32]             256
             ReLU-54          [-1, 128, 32, 32]               0
           Conv2d-55          [-1, 512, 32, 32]          65,536
      BatchNorm2d-56          [-1, 512, 32, 32]           1,024
             ReLU-57          [-1, 512, 32, 32]               0
       Bottleneck-58          [-1, 512, 32, 32]               0
           Conv2d-59          [-1, 128, 32, 32]          65,536
      BatchNorm2d-60          [-1, 128, 32, 32]             256
             ReLU-61          [-1, 128, 32, 32]               0
           Conv2d-62          [-1, 128, 32, 32]         147,456
      BatchNorm2d-63          [-1, 128, 32, 32]             256
             ReLU-64          [-1, 128, 32, 32]               0
           Conv2d-65          [-1, 512, 32, 32]          65,536
      BatchNorm2d-66          [-1, 512, 32, 32]           1,024
             ReLU-67          [-1, 512, 32, 32]               0
       Bottleneck-68          [-1, 512, 32, 32]               0
           Conv2d-69          [-1, 128, 32, 32]          65,536
      BatchNorm2d-70          [-1, 128, 32, 32]             256
             ReLU-71          [-1, 128, 32, 32]               0
           Conv2d-72          [-1, 128, 32, 32]         147,456
      BatchNorm2d-73          [-1, 128, 32, 32]             256
             ReLU-74          [-1, 128, 32, 32]               0
           Conv2d-75          [-1, 512, 32, 32]          65,536
      BatchNorm2d-76          [-1, 512, 32, 32]           1,024
             ReLU-77          [-1, 512, 32, 32]               0
       Bottleneck-78          [-1, 512, 32, 32]               0
           Conv2d-79          [-1, 256, 32, 32]         131,072
      BatchNorm2d-80          [-1, 256, 32, 32]             512
             ReLU-81          [-1, 256, 32, 32]               0
           Conv2d-82          [-1, 256, 16, 16]         589,824
      BatchNorm2d-83          [-1, 256, 16, 16]             512
             ReLU-84          [-1, 256, 16, 16]               0
           Conv2d-85         [-1, 1024, 16, 16]         262,144
      BatchNorm2d-86         [-1, 1024, 16, 16]           2,048
           Conv2d-87         [-1, 1024, 16, 16]         524,288
      BatchNorm2d-88         [-1, 1024, 16, 16]           2,048
             ReLU-89         [-1, 1024, 16, 16]               0
       Bottleneck-90         [-1, 1024, 16, 16]               0
           Conv2d-91          [-1, 256, 16, 16]         262,144
      BatchNorm2d-92          [-1, 256, 16, 16]             512
             ReLU-93          [-1, 256, 16, 16]               0
           Conv2d-94          [-1, 256, 16, 16]         589,824
      BatchNorm2d-95          [-1, 256, 16, 16]             512
             ReLU-96          [-1, 256, 16, 16]               0
           Conv2d-97         [-1, 1024, 16, 16]         262,144
      BatchNorm2d-98         [-1, 1024, 16, 16]           2,048
             ReLU-99         [-1, 1024, 16, 16]               0
      Bottleneck-100         [-1, 1024, 16, 16]               0
          Conv2d-101          [-1, 256, 16, 16]         262,144
     BatchNorm2d-102          [-1, 256, 16, 16]             512
            ReLU-103          [-1, 256, 16, 16]               0
          Conv2d-104          [-1, 256, 16, 16]         589,824
     BatchNorm2d-105          [-1, 256, 16, 16]             512
            ReLU-106          [-1, 256, 16, 16]               0
          Conv2d-107         [-1, 1024, 16, 16]         262,144
     BatchNorm2d-108         [-1, 1024, 16, 16]           2,048
            ReLU-109         [-1, 1024, 16, 16]               0
      Bottleneck-110         [-1, 1024, 16, 16]               0
          Conv2d-111          [-1, 256, 16, 16]         262,144
     BatchNorm2d-112          [-1, 256, 16, 16]             512
            ReLU-113          [-1, 256, 16, 16]               0
          Conv2d-114          [-1, 256, 16, 16]         589,824
     BatchNorm2d-115          [-1, 256, 16, 16]             512
            ReLU-116          [-1, 256, 16, 16]               0
          Conv2d-117         [-1, 1024, 16, 16]         262,144
     BatchNorm2d-118         [-1, 1024, 16, 16]           2,048
            ReLU-119         [-1, 1024, 16, 16]               0
      Bottleneck-120         [-1, 1024, 16, 16]               0
          Conv2d-121          [-1, 256, 16, 16]         262,144
     BatchNorm2d-122          [-1, 256, 16, 16]             512
            ReLU-123          [-1, 256, 16, 16]               0/root/anaconda3/envs/python3/lib/python3.7/site-packages/torch/nn/_reduction.py:46: UserWarning: size_average and reduce args will be deprecated, please use reduction='mean' instead.
  warnings.warn(warning.format(ret))
=> load 22246 samples
=> load 2958 samples
Epoch: [0][0/2225]	Time 4.031s (4.031s)	Speed 2.5 samples/s	Data 0.437s (0.437s)	Loss 0.05079 (0.05079)	Accuracy 0.040 (0.040)
Epoch: [0][100/2225]	Time 0.836s (0.829s)	Speed 12.0 samples/s	Data 0.621s (0.604s)	Loss 0.00143 (0.00382)	Accuracy 0.028 (0.024)
…
